…
ve=False, selfdis_w=0.0, colorjitter=False, randomrotation=0, ngpus=2, nodes=5, timeout=2800, job_dir=PosixPath('/scratch/workspace/sudipta/Distributed-Heira/sifar-pytorch-heira/experiments/%j'), partition='gpu_l40', use_volta32=False, comment='', gpu=0, rank=0, distributed=True, dist_backend='nccl')
Creating model: hiera
Before =  torch.Size([1, 3136, 96])
Interpolating position embeddings from 56x56 to 168x168
After =  torch.Size([1, 28224, 96])
_IncompatibleKeys(missing_keys=['head.projection.weight', 'head.projection.bias'], unexpected_keys=[])
Hiera(
  (patch_embed): PatchEmbed(
    (proj): Conv2d(3, 96, kernel_size=(7, 7), stride=(4, 4), padding=(3, 3))
  )
  (unroll): Unroll()
  (reroll): Reroll()
  (blocks): ModuleList(
    (0-1): 2 x HieraBlock(
      (norm1): LayerNorm((96,), eps=1e-06, elementwise_affine=True)
      (attn): MaskUnitAttention(
        (qkv): Linear(in_features=96, out_features=288, bias=True)
        (proj): Linear(in_features=96, out_features=96, bias=True)
      )
      (norm2): LayerNorm((96,), eps=1e-06, elementwise_affine=True)
      (mlp): Mlp(
        (fc1): Linear(in_features=96, out_features=384, bias=True)
        (act): GELU(approximate='none')
        (drop1): Dropout(p=0.0, inplace=False)
        (norm): Identity()
        (fc2): Linear(in_features=384, out_features=96, bias=True)
        (drop2): Dropout(p=0.0, inplace=False)
      )
      (drop_path): Identity()
    )
    (2): HieraBlock(
      (norm1): LayerNorm((96,), eps=1e-06, elementwise_affine=True)
      (attn): MaskUnitAttention(
        (qkv): Linear(in_features=96, out_features=576, bias=True)
        (proj): Linear(in_features=192, out_features=192, bias=True)
      )
      (norm2): LayerNorm((192,), eps=1e-06, elementwise_affine=True)
      (mlp): Mlp(
        (fc1): Linear(in_features=192, out_features=768, bias=True)
        (act): GELU(approximate='none')
        (drop1): Dropout(p=0.0, inplace=False)
        (norm): Identity()
        (fc2): Linear(in_features=768, out_features=192, bias=True)
        (drop2): Dropout(p=0.0, inplace=False)
      )
      (drop_path): Identity()
      (proj): Linear(in_features=96, out_features=192, bias=True)
    )
    (3-4): 2 x HieraBlock(
      (norm1): LayerNorm((192,), eps=1e-06, elementwise_affine=True)
      (attn): MaskUnitAttention(
        (qkv): Linear(in_features=192, out_features=576, bias=True)
        (proj): Linear(in_features=192, out_features=192, bias=True)
      )
      (norm2): LayerNorm((192,), eps=1e-06, elementwise_affine=True)
      (mlp): Mlp(
        (fc1): Linear(in_features=192, out_features=768, bias=True)
        (act): GELU(approximate='none')
        (drop1): Dropout(p=0.0, inplace=False)
        (norm): Identity()
        (fc2): Linear(in_features=768, out_features=192, bias=True)
        (drop2): Dropout(p=0.0, inplace=False)
      )
      (drop_path): Identity()
    )
    (5): HieraBlock(
      (norm1): LayerNorm((192,), eps=1e-06, elementwise_affine=True)
      (attn): MaskUnitAttention(
        (qkv): Linear(in_features=192, out_features=1152, bias=True)
        (proj): Linear(in_features=384, out_features=384, bias=True)
      )
      (norm2): LayerNorm((384,), eps=1e-06, elementwise_affine=True)
      (mlp): Mlp(
        (fc1): Linear(in_features=384, out_features=1536, bias=True)
        (act): GELU(approximate='none')
        (drop1): Dropout(p=0.0, inplace=False)
        (norm): Identity()
        (fc2): Linear(in_features=1536, out_features=384, bias=True)
        (drop2): Dropout(p=0.0, inplace=False)
      )
      (drop_path): Identity()
      (proj): Linear(in_features=192, out_features=384, bias=True)
    )
    (6-20): 15 x HieraBlock(
      (norm1): LayerNorm((384,), eps=1e-06, elementwise_affine=True)
      (attn): MaskUnitAttention(
        (qkv): Linear(in_features=384, out_features=1152, bias=True)
        (proj): Linear(in_features=384, out_features=384, bias=True)
      )
      (norm2): LayerNorm((384,), eps=1e-06, elementwise_affine=True)
      (mlp): Mlp(
        (fc1): Linear(in_features=384, out_features=1536, bias=True)
        (act): GELU(approximate='none')
        (drop1): Dropout(p=0.0, inplace=False)
        (norm): Identity()
        (fc2): Linear(in_features=1536, out_features=384, bias=True)
        (drop2): Dropout(p=0.0, inplace=False)
      )
      (drop_path): Identity()
    )
    (21): HieraBlock(
      (norm1): LayerNorm((384,), eps=1e-06, elementwise_affine=True)
      (attn): MaskUnitAttention(
        (qkv): Linear(in_features=384, out_features=2304, bias=True)
        (proj): Linear(in_features=768, out_features=768, bias=True)
      )
      (norm2): LayerNorm((768,), eps=1e-06, elementwise_affine=True)
      (mlp): Mlp(
        (fc1): Linear(in_features=768, out_features=3072, bias=True)
        (act): GELU(approximate='none')
        (drop1): Dropout(p=0.0, inplace=False)
        (norm): Identity()
        (fc2): Linear(in_features=3072, out_features=768, bias=True)
        (drop2): Dropout(p=0.0, inplace=False)
      )
      (drop_path): Identity()
      (proj): Linear(in_features=384, out_features=768, bias=True)
    )
    (22-23): 2 x HieraBlock(
      (norm1): LayerNorm((768,), eps=1e-06, elementwise_affine=True)
      (attn): MaskUnitAttention(
        (qkv): Linear(in_features=768, out_features=2304, bias=True)
        (proj): Linear(in_features=768, out_features=768, bias=True)
      )
      (norm2): LayerNorm((768,), eps=1e-06, elementwise_affine=True)
      (mlp): Mlp(
        (fc1): Linear(in_features=768, out_features=3072, bias=True)
        (act): GELU(approximate='none')
        (drop1): Dropout(p=0.0, inplace=False)
        (norm): Identity()
        (fc2): Linear(in_features=3072, out_features=768, bias=True)
        (drop2): Dropout(p=0.0, inplace=False)
      )
      (drop_path): Identity()
    )
  )
  (norm): LayerNorm((768,), eps=1e-06, elementwise_affine=True)
  (head): Head(
    (dropout): Identity()
    (projection): Linear(in_features=768, out_features=400, bias=True)
  )
)
number of params: 53472016
The number of videos is 234291 (with more than 30 frames) (original: 234584)
The number of videos is 19754 (with more than 30 frames) (original: 19760)
Start training, current max accuracy is 0.00
Epoch: [0]  [   0/1302]  eta: 3:19:32  lr: 0.000001  loss: 5.9914 (5.9914)  time: 9.1954  data: 3.0689  max mem: 40239
Epoch: [0]  [  50/1302]  eta: 1:22:26  lr: 0.000001  loss: 5.9901 (5.9907)  time: 3.8486  data: 0.0005  max mem: 40725
…
